…
Configure(arch='cpm_vgg16', stages=3, dilation=[1], pooling=[True, True, True], downsample=8, argmax=4, pretrained=[True])
Real Sigma : 4.0
./configs/lk.config
Configure(start=0, steps=20, window=8, weight=0.2, stable=1, conf_thresh=0.3, forward_max=2.0, fb_thresh=1.0, eps=1e-05)
model configure : Configure(arch='cpm_vgg16', stages=3, dilation=[1], pooling=[True, True, True], downsample=8, argmax=4, pretrained=[True])
LK configure : Configure(start=0, steps=20, window=8, weight=0.2, stable=1, conf_thresh=0.3, forward_max=2.0, fb_thresh=1.0, eps=1e-05)
=> network :
 LK(
  (detector): VGG16_base(
    (features): Sequential(
      (0): Conv2d(3, 64, kernel_size=(3, 3), stride=(1, 1), padding=(1, 1))
      (1): ReLU(inplace=True)
      (2): Conv2d(64, 64, kernel_size=(3, 3), stride=(1, 1), padding=(1, 1))
      (3): ReLU(inplace=True)
      (4): MaxPool2d(kernel_size=2, stride=2, padding=0, dilation=1, ceil_mode=False)
      (5): Conv2d(64, 128, kernel_size=(3, 3), stride=(1, 1), padding=(1, 1))
      (6): ReLU(inplace=True)
      (7): Conv2d(128, 128, kernel_size=(3, 3), stride=(1, 1), padding=(1, 1))
      (8): ReLU(inplace=True)
      (9): MaxPool2d(kernel_size=2, stride=2, padding=0, dilation=1, ceil_mode=False)
      (10): Conv2d(128, 256, kernel_size=(3, 3), stride=(1, 1), padding=(1, 1))
      (11): ReLU(inplace=True)
      (12): Conv2d(256, 256, kernel_size=(3, 3), stride=(1, 1), padding=(1, 1))
      (13): ReLU(inplace=True)
      (14): Conv2d(256, 256, kernel_size=(3, 3), stride=(1, 1), padding=(1, 1))
      (15): ReLU(inplace=True)
      (16): MaxPool2d(kernel_size=2, stride=2, padding=0, dilation=1, ceil_mode=False)
      (17): Conv2d(256, 512, kernel_size=(3, 3), stride=(1, 1), padding=(1, 1))
      (18): ReLU(inplace=True)
      (19): Conv2d(512, 512, kernel_size=(3, 3), stride=(1, 1), padding=(1, 1))
      (20): ReLU(inplace=True)
      (21): Conv2d(512, 512, kernel_size=(3, 3), stride=(1, 1), padding=(1, 1))
      (22): ReLU(inplace=True)
    )
    (CPM_feature): Sequential(
      (0): Conv2d(512, 256, kernel_size=(3, 3), stride=(1, 1), padding=(1, 1))
      (1): ReLU(inplace=True)
      (2): Conv2d(256, 128, kernel_size=(3, 3), stride=(1, 1), padding=(1, 1))
      (3): ReLU(inplace=True)
    )
    (stages): ModuleList(
      (0): Sequential(
        (0): Conv2d(128, 128, kernel_size=(3, 3), stride=(1, 1), padding=(1, 1))
        (1): ReLU(inplace=True)
        (2): Conv2d(128, 128, kernel_size=(3, 3), stride=(1, 1), padding=(1, 1))
        (3): ReLU(inplace=True)
        (4): Conv2d(128, 128, kernel_size=(3, 3), stride=(1, 1), padding=(1, 1))
        (5): ReLU(inplace=True)
        (6): Conv2d(128, 128, kernel_size=(3, 3), stride=(1, 1), padding=(1, 1))
        (7): ReLU(inplace=True)
        (8): Conv2d(128, 512, kernel_size=(1, 1), stride=(1, 1))
        (9): ReLU(inplace=True)
        (10): Conv2d(512, 69, kernel_size=(1, 1), stride=(1, 1))
      )
      (1): Sequential(
        (0): Conv2d(197, 128, kernel_size=(7, 7), stride=(1, 1), padding=(3, 3))
        (1): ReLU(inplace=True)
        (2): Conv2d(128, 128, kernel_size=(7, 7), stride=(1, 1), padding=(3, 3))
        (3): ReLU(inplace=True)
        (4): Conv2d(128, 128, kernel_size=(7, 7), stride=(1, 1), padding=(3, 3))
        (5): ReLU(inplace=True)
        (6): Conv2d(128, 128, kernel_size=(3, 3), stride=(1, 1), padding=(1, 1))
        (7): ReLU(inplace=True)
        (8): Conv2d(128, 128, kernel_size=(3, 3), stride=(1, 1), padding=(1, 1))
        (9): ReLU(inplace=True)
        (10): Conv2d(128, 128, kernel_size=(3, 3), stride=(1, 1), padding=(1, 1))
        (11): ReLU(inplace=True)
        (12): Conv2d(128, 128, kernel_size=(3, 3), stride=(1, 1), padding=(1, 1))
        (13): ReLU(inplace=True)
        (14): Conv2d(128, 128, kernel_size=(1, 1), stride=(1, 1))
        (15): ReLU(inplace=True)
        (16): Conv2d(128, 69, kernel_size=(1, 1), stride=(1, 1))
      )
      (2): Sequential(
        (0): Conv2d(197, 128, kernel_size=(7, 7), stride=(1, 1), padding=(3, 3))
        (1): ReLU(inplace=True)
        (2): Conv2d(128, 128, kernel_size=(7, 7), stride=(1, 1), padding=(3, 3))
        (3): ReLU(inplace=True)
        (4): Conv2d(128, 128, kernel_size=(7, 7), stride=(1, 1), padding=(3, 3))
        (5): ReLU(inplace=True)
        (6): Conv2d(128, 128, kernel_size=(3, 3), stride=(1, 1), padding=(1, 1))
        (7): ReLU(inplace=True)
        (8): Conv2d(128, 128, kernel_size=(3, 3), stride=(1, 1), padding=(1, 1))
        (9): ReLU(inplace=True)
        (10): Conv2d(128, 128, kernel_size=(3, 3), stride=(1, 1), padding=(1, 1))
        (11): ReLU(inplace=True)
        (12): Conv2d(128, 128, kernel_size=(3, 3), stride=(1, 1), padding=(1, 1))
        (13): ReLU(inplace=True)
        (14): Conv2d(128, 128, kernel_size=(1, 1), stride=(1, 1))
        (15): ReLU(inplace=True)
        (16): Conv2d(128, 69, kernel_size=(1, 1), stride=(1, 1))
      )
    )
  )
)
Training-data : VideoDataset(point-num=68, sigma=4.0, heatmap_type=gaussian, length=67224, dataset=300W-68, parser=x-1-1)
The [ 0/ 1]-th testing-data [image] = GeneralDataset(point-num=68, sigma=4.0, heatmap_type=gaussian, length=8090, dataset=300W-68)
arguments : Namespace(arg_flip=False, batch_size=16, crop_height=256, crop_perturb_
…
